…
│ (MaxPooling2D)       │ 5)              │          │
├──────────────────────┼─────────────────┼──────────┤
│ conv2d_5 (Conv2D)    │ (None, 22, 151, │      184 │
│                      │ 4)              │          │
├──────────────────────┼─────────────────┼──────────┤
│ leaky_relu_4         │ (None, 22, 151, │        0 │
│ (LeakyReLU)          │ 4)              │          │
├──────────────────────┼─────────────────┼──────────┤
│ max_pooling2d_4      │ (None, 11, 75,  │        0 │
│ (MaxPooling2D)       │ 4)              │          │
├──────────────────────┼─────────────────┼──────────┤
│ flatten (Flatten)    │ (None, 3300)    │        0 │
├──────────────────────┼─────────────────┼──────────┤
│ dense_1 (Dense)      │ (None, 32)      │  105,632 │
├──────────────────────┼─────────────────┼──────────┤
│ leaky_relu_5         │ (None, 32)      │        0 │
│ (LeakyReLU)          │                 │          │
├──────────────────────┼─────────────────┼──────────┤
│ dense_2 (Dense)      │ (None, 16)      │      528 │
├──────────────────────┼─────────────────┼──────────┤
│ leaky_relu_6         │ (None, 16)      │        0 │
│ (LeakyReLU)          │                 │          │
├──────────────────────┼─────────────────┼──────────┤
│ dense_3 (Dense)      │ (None, 10)      │      170 │
├──────────────────────┼─────────────────┼──────────┤
│ leaky_relu_7         │ (None, 10)      │        0 │
│ (LeakyReLU)          │                 │          │
├──────────────────────┼─────────────────┼──────────┤
│ dense_4 (Dense)      │ (None, 8)       │       88 │
├──────────────────────┼─────────────────┼──────────┤
│ leaky_relu_8         │ (None, 8)       │        0 │
│ (LeakyReLU)          │                 │          │
├──────────────────────┼─────────────────┼──────────┤
│ output (Dense)       │ (None, 1)       │        9 │
└──────────────────────┴─────────────────┴──────────┘
 Total params: 110,616 (432.09 KB)
 Trainable params: 110,616 (432.09 KB)
 Non-trainable params: 0 (0.00 B)

