…
Warning: Inconsistent sample counts across planes: [44, 47, 45], skipping file
Warning: Inconsistent sample counts across planes: [40, 42, 42], skipping file
Warning: Inconsistent sample counts across planes: [46, 45, 45], skipping file
  Loaded 2500/2500 samples from 883 files
 Loaded 2500 samples
  Image shape: (2500, 208, 1242, 3)
  Direction shape: (2500, 3)
======================================================================


Dataset splits:
  Train: 1600 samples
  Val:   400 samples
  Test:  500 samples

Input shape: (208, 1242, 3)
Model: "sequential"

 Layer (type)                     Output Shape                  Param # 

 conv2d_1 (Conv2D)                (None, 208, 1242, 32)             896 

 maxpool_1 (MaxPooling2D)         (None, 104, 621, 32)                0 

 bn_1 (BatchNormalization)        (None, 104, 621, 32)              128 

 conv2d_2 (Conv2D)                (None, 104, 621, 64)           18,496 

 maxpool_2 (MaxPooling2D)         (None, 52, 310, 64)                 0 

 bn_2 (BatchNormalization)        (None, 52, 310, 64)               256 

 conv2d_3 (Conv2D)                (None, 52, 310, 128)           73,856 

 maxpool_3 (MaxPooling2D)         (None, 26, 155, 128)                0 

 bn_3 (BatchNormalization)        (None, 26, 155, 128)              512 

 conv2d_4 (Conv2D)                (None, 26, 155, 256)          295,168 

 maxpool_4 (MaxPooling2D)         (None, 13, 77, 256)                 0 

 bn_4 (BatchNormalization)        (None, 13, 77, 256)             1,024 

 flatten (Flatten)                (None, 256256)                      0 

 dense_1 (Dense)                  (None, 256)                65,601,792 

 dropout (Dropout)                (None, 256)                         0 

 output (Dense)                   (None, 3)                         771 

 Total params: 65,992,899 (251.74 MB)
 Trainable params: 65,991,939 (251.74 MB)
 Non-trainable params: 960 (3.75 KB)

======================================================================
TRAINING WITH BATCH RELOAD - ELECTRON DIRECTION
======================================================================
Total epochs: 100
Reload every: 5 epochs
Batch size: 8
======================================================================
…
