…
  Loaded 50000 CC samples...
Total loaded: 50000 ES samples, 50000 CC samples
Final batch shape: (100000, 128, 32, 1), labels: (100000,)
Split: train=70000, val=15000, test=15000

Image shape: (128, 32, 1)

Building model...
Model: "ct_cluster_cnn"
_________________________________________________________________
 Layer (type)                Output Shape              Param #   
=================================================================
 input (InputLayer)          [(None, 128, 32, 1)]      0         
                                                                 
 conv1 (Conv2D)              (None, 128, 32, 32)       320       
                                                                 
 pool1 (MaxPooling2D)        (None, 64, 16, 32)        0         
                                                                 
 conv2 (Conv2D)              (None, 64, 16, 32)        9248      
                                                                 
 pool2 (MaxPooling2D)        (None, 32, 8, 32)         0         
                                                                 
 conv3 (Conv2D)              (None, 32, 8, 64)         18496     
                                                                 
 pool3 (MaxPooling2D)        (None, 16, 4, 64)         0         
                                                                 
 conv4 (Conv2D)              (None, 16, 4, 64)         36928     
                                                                 
 pool4 (MaxPooling2D)        (None, 8, 2, 64)          0         
                                                                 
 conv5 (Conv2D)              (None, 8, 2, 128)         73856     
                                                                 
 pool5 (MaxPooling2D)        (None, 4, 1, 128)         0         
                                                                 
 flatten (Flatten)           (None, 512)               0         
                                                                 
 dense1 (Dense)              (None, 128)               65664     
                                                                 
 dropout1 (Dropout)          (None, 128)               0         
                                                                 
 dense2 (Dense)              (None, 64)                8256      
                                                                 
 dropout2 (Dropout)          (None, 64)                0         
                                                                 
 output (Dense)              (None, 2)                 130       
                                                                 
=================================================================
Total params: 212898 (831.63 KB)
Trainable params: 212898 (831.63 KB)
Non-trainable params: 0 (0.00 Byte)
_________________________________________________________________

======================================================================
Training with batch reload strategy
…
