…
Loading CC from /eos/home-e/evilla/dune/sn-tps/prod_cc/cc_production_volume_images_tick3_ch2_min2_tot3_e2p0/
  Found 4308 files
  Loaded 10000 images
  Shape: (10000, 208, 1242, 1)

Total: 20000 samples
  ES (label=1): 10000
  CC (label=0): 10000
Final shape: (20000, 208, 1242, 1)

Shuffling...

Splits: Train=14000, Val=3000, Test=3000

Building model...
Model: "ct_deep_architecture"
┏━━━━━━━━━━━━━━━━━━━━━━━━━━━━━━━━━┳━━━━━━━━━━━━━━━━━━━━━━━━┳━━━━━━━━━━━━━━━┓
┃ Layer (type)                    ┃ Output Shape           ┃       Param # ┃
┡━━━━━━━━━━━━━━━━━━━━━━━━━━━━━━━━━╇━━━━━━━━━━━━━━━━━━━━━━━━╇━━━━━━━━━━━━━━━┩
│ input_layer (InputLayer)        │ (None, 208, 1242, 1)   │             0 │
├─────────────────────────────────┼────────────────────────┼───────────────┤
│ conv2d_28 (Conv2D)              │ (None, 208, 1242, 200) │         2,000 │
├─────────────────────────────────┼────────────────────────┼───────────────┤
│ leaky_re_lu_47 (LeakyReLU)      │ (None, 208, 1242, 200) │             0 │
├─────────────────────────────────┼────────────────────────┼───────────────┤
│ max_pooling2d_20 (MaxPooling2D) │ (None, 104, 621, 200)  │             0 │
├─────────────────────────────────┼────────────────────────┼───────────────┤
│ conv2d_29 (Conv2D)              │ (None, 104, 621, 100)  │       180,100 │
├─────────────────────────────────┼────────────────────────┼───────────────┤
│ leaky_re_lu_48 (LeakyReLU)      │ (None, 104, 621, 100)  │             0 │
├─────────────────────────────────┼────────────────────────┼───────────────┤
│ max_pooling2d_21 (MaxPooling2D) │ (None, 52, 310, 100)   │             0 │
├─────────────────────────────────┼────────────────────────┼───────────────┤
│ conv2d_30 (Conv2D)              │ (None, 52, 310, 100)   │        90,100 │
├─────────────────────────────────┼────────────────────────┼───────────────┤
│ leaky_re_lu_49 (LeakyReLU)      │ (None, 52, 310, 100)   │             0 │
├─────────────────────────────────┼────────────────────────┼───────────────┤
│ max_pooling2d_22 (MaxPooling2D) │ (None, 26, 155, 100)   │             0 │
├─────────────────────────────────┼────────────────────────┼───────────────┤
│ conv2d_31 (Conv2D)              │ (None, 26, 155, 50)    │        45,050 │
├─────────────────────────────────┼────────────────────────┼───────────────┤
│ leaky_re_lu_50 (LeakyReLU)      │ (None, 26, 155, 50)    │             0 │
├─────────────────────────────────┼────────────────────────┼───────────────┤
│ conv2d_32 (Conv2D)              │ (None, 26, 155, 25)    │        11,275 │
├─────────────────────────────────┼────────────────────────┼───────────────┤
│ leaky_re_lu_51 (LeakyReLU)      │ (None, 26, 155, 25)    │             0 │
├─────────────────────────────────┼────────────────────────┼───────────────┤
│ max_pooling2d_23 (MaxPooling2D) │ (None, 13, 77, 25)     │             0 │
├─────────────────────────────────┼────────────────────────┼───────────────┤
│ flatten_8 (Flatten)             │ (None, 25025)          │             0 │
├─────────────────────────────────┼────────────────────────┼───────────────┤
│ dense_35 (Dense)                │ (None, 3648)           │    91,294,848 │
├─────────────────────────────────┼────────────────────────┼───────────────┤
│ leaky_re_lu_52 (LeakyReLU)      │ (None, 3648)           │             0 │
├─────────────────────────────────┼────────────────────────┼───────────────┤
│ dense_36 (Dense)                │ (None, 32)             │       116,768 │
├─────────────────────────────────┼────────────────────────┼───────────────┤
│ dense_37 (Dense)                │ (None, 16)             │           528 │
├─────────────────────────────────┼────────────────────────┼───────────────┤
│ leaky_re_lu_53 (LeakyReLU)      │ (None, 16)             │             0 │
├─────────────────────────────────┼────────────────────────┼───────────────┤
│ dense_38 (Dense)                │ (None, 10)             │           170 │
├─────────────────────────────────┼────────────────────────┼───────────────┤
│ dense_39 (Dense)                │ (None, 8)              │            88 │
├─────────────────────────────────┼────────────────────────┼───────────────┤
│ leaky_re_lu_54 (LeakyReLU)      │ (None, 8)              │             0 │
├─────────────────────────────────┼────────────────────────┼───────────────┤
│ output (Dense)                  │ (None, 2)              │            18 │
└─────────────────────────────────┴────────────────────────┴───────────────┘
 Total params: 91,740,945 (349.96 MB)
 Trainable params: 91,740,945 (349.96 MB)
 Non-trainable params: 0 (0.00 B)

Output: /eos/user/e/evilla/dune/sn-tps/neural_networks/channel_tagging/v71_deep_arch_20k/20251118_235809

Training...
================================================================================
==========================================
…
